…
2020-02-11 04:00:03.582587: I tensorflow/core/common_runtime/gpu/gpu_device.cc:1115] Created TensorFlow device (/job:localhost/replica:0/task:0/device:GPU:0 with 20768 MB memory) -> physical GPU (device: 0, name: Quadro P6000, pci bus id: 0000:65:00.0, compute capability: 6.1)

fcn_config.py runs from  /workspace/VAI-KERAS-FCN8-SEMSEG/code
UPSCALE =  False
__________________________________________________________________________________________________
Layer (type)                    Output Shape         Param #     Connected to
==================================================================================================
input_1 (InputLayer)            (None, 224, 224, 3)  0
__________________________________________________________________________________________________
block1_conv1 (Conv2D)           (None, 224, 224, 64) 1792        input_1[0][0]
__________________________________________________________________________________________________
block1_conv2 (Conv2D)           (None, 224, 224, 64) 36928       block1_conv1[0][0]
__________________________________________________________________________________________________
block1_pool (MaxPooling2D)      (None, 112, 112, 64) 0           block1_conv2[0][0]
__________________________________________________________________________________________________
block2_conv1 (Conv2D)           (None, 112, 112, 128 73856       block1_pool[0][0]
__________________________________________________________________________________________________
block2_conv2 (Conv2D)           (None, 112, 112, 128 147584      block2_conv1[0][0]
__________________________________________________________________________________________________
block2_pool (MaxPooling2D)      (None, 56, 56, 128)  0           block2_conv2[0][0]
__________________________________________________________________________________________________
block3_conv1 (Conv2D)           (None, 56, 56, 256)  295168      block2_pool[0][0]
__________________________________________________________________________________________________
block3_conv2 (Conv2D)           (None, 56, 56, 256)  590080      block3_conv1[0][0]
__________________________________________________________________________________________________
block3_conv3 (Conv2D)           (None, 56, 56, 256)  590080      block3_conv2[0][0]
__________________________________________________________________________________________________
block3_pool (MaxPooling2D)      (None, 28, 28, 256)  0           block3_conv3[0][0]
__________________________________________________________________________________________________
block4_conv1 (Conv2D)           (None, 28, 28, 512)  1180160     block3_pool[0][0]
__________________________________________________________________________________________________
block4_conv2 (Conv2D)           (None, 28, 28, 512)  2359808     block4_conv1[0][0]
__________________________________________________________________________________________________
block4_conv3 (Conv2D)           (None, 28, 28, 512)  2359808     block4_conv2[0][0]
__________________________________________________________________________________________________
block4_pool (MaxPooling2D)      (None, 14, 14, 512)  0           block4_conv3[0][0]
__________________________________________________________________________________________________
block5_conv1 (Conv2D)           (None, 14, 14, 512)  2359808     block4_pool[0][0]
__________________________________________________________________________________________________
block5_conv2 (Conv2D)           (None, 14, 14, 512)  2359808     block5_conv1[0][0]
__________________________________________________________________________________________________
block5_conv3 (Conv2D)           (None, 14, 14, 512)  2359808     block5_conv2[0][0]
__________________________________________________________________________________________________
block5_pool (MaxPooling2D)      (None, 7, 7, 512)    0           block5_conv3[0][0]
__________________________________________________________________________________________________
conv6 (Conv2D)                  (None, 7, 7, 512)    12845568    block5_pool[0][0]
__________________________________________________________________________________________________
pool4_11 (Conv2D)               (None, 14, 14, 12)   6156        block4_pool[0][0]
__________________________________________________________________________________________________
conv7 (Conv2D)                  (None, 7, 7, 512)    262656      conv6[0][0]
__________________________________________________________________________________________________
conv2d_transpose_2 (Conv2DTrans (None, 28, 28, 12)   576         pool4_11[0][0]
__________________________________________________________________________________________________
pool3_11 (Conv2D)               (None, 28, 28, 12)   3084        block3_pool[0][0]
__________________________________________________________________________________________________
conv2d_transpose_1 (Conv2DTrans (None, 28, 28, 12)   98304       conv7[0][0]
__________________________________________________________________________________________________
add_layer (Add)                 (None, 28, 28, 12)   0           conv2d_transpose_2[0][0]
                                                                 pool3_11[0][0]
                                                                 conv2d_transpose_1[0][0]
__________________________________________________________________________________________________
conv2d_transpose_3 (Conv2DTrans (None, 224, 224, 12) 9216        add_layer[0][0]
__________________________________________________________________________________________________
activation_1 (Activation)       (None, 224, 224, 12) 0           conv2d_transpose_3[0][0]
==================================================================================================
Total params: 27,940,248
Trainable params: 27,940,248
Non-trainable params: 0
__________________________________________________________________________________________________
(311, 224, 224, 3) (311, 224, 224, 12)
(56, 224, 224, 3) (56, 224, 224, 12)
Train on 311 samples, validate on 56 samples
…
